chrome_data/optimization_guide_model_store/20/63922A0C010C80A5/4CEC6527BC8AF80E/model.tflite (tflite, 64852 bytes, 5 tensors)

arith.constant f4 [1, 64]
0	0x3d90e0ce	0.07074128
1	0x3d1e5346	0.038653634
2	0x3e25c7ab	0.16189449
3	0xbdcadda5	-0.099055566
4	0xbdd1f6fe	-0.10252188
5	0xbe3f70b7	-0.18695341
6	0x3dd436d6	0.103620216
7	0x3f0331b7	0.51247734
8	0xbe7d1399	-0.24714507
9	0x3e56d19e	0.209784
10	0xbe175213	-0.14777403
11	0x3e3c8031	0.18408276
12	0xbd1fac75	-0.038982827
13	0x3e63357d	0.22188373
14	0x3e5a4d62	0.21318582
15	0x3e78a43c	0.242814
16	0xbe036160	-0.12830114
17	0x3e8002a9	0.2500203
18	0x3e823973	0.25434455
19	0x3eaec2bc	0.34132946
20	0x3daf6c88	0.085656226
21	0xbe33cf61	-0.17559578
22	0xbea69b40	-0.3254032
23	0x3e20fe6c	0.15722054
24	0xbdf921a5	-0.1216462
25	0xbe5706c4	-0.20998675
26	0xbe71255d	-0.23549409
27	0x3e70a0db	0.23498861
28	0xbea97a76	-0.33101243
29	0xbc0c0e78	-0.0085483715
30	0x3e8826b4	0.26592028
31	0x3de63345	0.11240248
32	0xbe4f7fe8	-0.20263636
33	0x3bbe5f04	0.0058096666
34	0x3f11f13f	0.5700874
35	0xbe03de09	-0.12877668
36	0x3e8875ff	0.26652524
37	0xbe5b682b	-0.21426456
38	0xbec3c60f	-0.38237044
39	0x3e8227d8	0.25421023
40	0x3e9f779e	0.31145948
41	0xbe16aa87	-0.14713489
42	0x3e4de6b6	0.2010754
43	0x3e02fe3d	0.12792297
44	0xbe829154	-0.25501502
45	0x3dfdea34	0.12398186
46	0x3da4a4bd	0.08039234
47	0x3d037507	0.032094028
48	0x3e99c827	0.30035517
49	0x3e06a4ef	0.13148855
50	0x3ea31c80	0.3185768
51	0xbeaf7ed1	-0.3427644
52	0xbdac6047	-0.08416801
53	0x3e8900fb	0.2675856
54	0x3e6143c7	0.21998511
55	0x3e906bff	0.28207394
56	0xbe7cc244	-0.24683481
57	0x3e2a5507	0.16633998
58	0x3ea33845	0.31878868
59	0xbe41b11a	-0.18915215
60	0x3d40b002	0.047042854
61	0xbe43445c	-0.19069046
62	0x3e204af7	0.15653597
63	0xbe9ff761	-0.31243423

arith.constant1 f4 [64, 128]
0	0xbe28f8f2	-0.16501215
1	0x3b4f3c2c	0.0031621559
2	0x3ccd4155	0.025055567
3	0xbe076d44	-0.13225275
4	0xbd39cd51	-0.04536182
5	0xbdc429dd	-0.09578297
6	0xbdab9d15	-0.083795704
7	0x3e275eb4	0.1634472
8	0xbd301197	-0.042985525
9	0x3e16063b	0.14650814
10	0x3cbd77b6	0.023128372
11	0xbd1e0789	-0.038581405
12	0x3e00386b	0.12521522
13	0xbe27dc95	-0.16392739
14	0x3cbd9dda	0.023146559
15	0xbc88d496	-0.016702931
16	0xbd13c560	-0.036076903
17	0xbc2d60d6	-0.0105821695
18	0xbdcb5c94	-0.09929767
19	0x3de79608	0.11307913
20	0x3e19f77f	0.15035819
21	0xbce208a7	-0.027592016
22	0x3cb32920	0.021870196
23	0x3ddc2204	0.107486755
24	0xbdbcf8fe	-0.09227179
25	0x3e0e4002	0.13891605
26	0xbe071f8d	-0.1319563
27	0x3dcee105	0.10101513
28	0xbdc5540b	-0.096351705
29	0xbdbd5bb8	-0.092460096
30	0xbe2cd4e0	-0.1687808
31	0xbd86f00b	-0.06588753
32	0xbdad2caf	-0.08455788
33	0xbcb056d7	-0.021525783
34	0x3db33d56	0.08751933
35	0xbd3cf48b	-0.04613165
36	0xbded5a99	-0.11589546
37	0xbd17aebb	-0.03703187
38	0xbd857ad7	-0.065175705
39	0xbd8554bd	-0.06510303
40	0x3c8e1a17	0.017346425
41	0x3d85c0ff	0.06530952
42	0x3d47223a	0.048616625
43	0xbd550440	-0.052006006
44	0xbd0d8be2	-0.03455723
45	0xbd1705f9	-0.03687093
46	0xbdaa08f1	-0.08302487
47	0xbe3747ab	-0.17898433
48	0xbe078954	-0.1323598
49	0x3cae2ee4	0.021262594
50	0x3c7b7f2b	0.015350143
51	0xbdc8375a	-0.097761825
52	0x3cde783c	0.027156942
53	0x3b388d78	0.0028160494
54	0xbde8aff7	-0.11361688
55	0x3e0fb05d	0.14032121
56	0x3dbaff72	0.091307536
57	0xbe03e822	-0.1288152
58	0x3ca42645	0.02003778
59	0x3e109488	0.1411916
60	0x3d81b6a0	0.06333661
61	0x3e13f130	0.14447474
62	0xbd5dc311	-0.054141108
63	0xbe27fa14	-0.16403991
64	0x3dbf1145	0.09329466
65	0x3e1de1f8	0.15418231
66	0xbd78b87b	-0.06072281
67	0xbde012ea	-0.109411076
68	0x3e1615f8	0.14656818
69	0x3d6ca9de	0.057779185
70	0xbde1ecf1	-0.11031521
71	0xbe1e8b4f	-0.1548283
72	0xbe036991	-0.12833239
73	0x3de03008	0.10946661
74	0xbe355a1f	-0.1771016
75	0xbdf9ea2c	-0.12202868
76	0xbdc03b37	-0.09386294
77	0x3d4d1166	0.05006542
78	0x3cc7915c	0.024361305
79	0xbe24eb49	-0.16105379
80	0xbdb024da	-0.08600779
81	0xbe1621b1	-0.1466129
82	0xbd8d546b	-0.06900867
83	0x3da633e3	0.08115365
84	0xbe113ff2	-0.1418455
85	0x3da189eb	0.07887634
86	0x3e27bff3	0.16381817
87	0x3d040737	0.032233443
88	0x3e142fb8	0.14471328
89	0xbe173e30	-0.14769816
90	0xbdc93137	-0.0982384
91	0x3df78631	0.12086142
92	0x3d7907e4	0.06079854
93	0xbcc5684c	-0.024097584
94	0x3d8cd586	0.06876664
95	0x3df6282e	0.120193824
96	0x3cb0b813	0.021572148
97	0x3e054e4e	0.13018152
98	0xbcf5a441	-0.029985549
99	0xbe34efbe	-0.1766958
100	0xbe1f8d4b	-0.15581243
101	0xbe16359b	-0.14668886
102	0xbe1afa2d	-0.15134497
103	0xbe2be4f1	-0.16786553
104	0xbde180a9	-0.11010868
105	0xbe18e108	-0.14929593
106	0xbdee3dc8	-0.116328776
107	0xbd360b5e	-0.044444434
108	0xbc9f4041	-0.019439818
109	0xbd332cd9	-0.043743942
110	0xbdde6165	-0.1085842
111	0xbd911951	-0.07084907
112	0x3cdf3940	0.027248979
113	0xbccec81d	-0.025241906
114	0x3e1cc1c7	0.15308295
115	0x3de8041f	0.11328911
116	0x3d5a94ae	0.05336445
117	0xbda285e8	-0.07935697
118	0xbdaab0fc	-0.08334538
119	0x3e40f396	0.1884292
120	0xbcefc9e8	-0.029271081
121	0xbe05b60d	-0.13057728
122	0xbc38aca4	-0.0112716295
123	0x3ce1673d	0.027515048
124	0xbde7f0cf	-0.113252275
125	0xbd22dbf2	-0.039760537
126	0x3e33bf27	0.17553388
127	0xbd8cce2b	-0.06875261
128	0xbdad1e05	-0.084529914
129	0x3dd59733	0.104292296
130	0xbdfdf229	-0.12399704
131	0xbd4b9080	-0.049698353
132	0xbd9b0ae9	-0.0757044
133	0x3d83fa00	0.06444168
134	0xbe0b8ca0	-0.13627863
135	0x3c94d248	0.018166676
136	0x3dc7c48a	0.09754284
137	0x3d876020	0.06610131
138	0xbcbe9996	-0.023266595
139	0x3d9ab57b	0.07554146
140	0xbe343852	-0.1759961
141	0xbd97f247	-0.074192576
142	0x3de59098	0.1120922
143	0x3c17c517	0.0092632985
144	0xbd6eebe5	-0.058330435
145	0xbde0cd1d	-0.10976622
146	0x3d37a22a	0.044832386
147	0xbdac8aa8	-0.08424884
148	0x3d80e339	0.06293339
149	0xbbad1535	-0.005282069
150	0x3e0f5961	0.13998939
151	0xbe22403d	-0.15844817
152	0x3b561b11	0.0032669941
153	0xbe020f31	-0.12701108
154	0x3cac0e3e	0.021002885
155	0xbe20ae6a	-0.15691534
156	0xbe01ffde	-0.12695262
157	0x3c38a4c9	0.011269757
158	0xbde184e3	-0.11011674
159	0xbd9326e6	-0.07185154
160	0x3e061844	0.13095194
161	0x3e1f26ba	0.15542117
162	0xbe0202f9	-0.12696446
163	0xbd18da19	-0.03731737
164	0x3e354292	0.17701176
165	0xbe021b57	-0.12705742
166	0xbd055b58	-0.032557815
167	0xbd1bb55f	-0.038014766
168	0xbd94e95e	-0.07271074
169	0x3c0efe33	0.008727598
170	0xbd0bf0ce	-0.034165196
171	0xbd7aaf11	-0.061202113
172	0xbd500fba	-0.050796248
173	0xbdfaefbe	-0.122527584
174	0xbe0abff1	-0.13549782
175	0xbd9fc771	-0.07801712
176	0xbe206366	-0.15662917
177	0xbd9b94a8	-0.07596713
178	0x3e2319ca	0.15927806
179	0xbd84e300	-0.06488609
180	0xbd1ed15b	-0.038773876
181	0xbe28f253	-0.1649869
182	0xbe0daa96	-0.13834605
183	0x3d68eb98	0.056865305
184	0x3bb2b512	0.005453714
185	0x3d5b452c	0.053532764
186	0x3ce56f2c	0.028007112
187	0xbdec5a2d	-0.11540637
188	0x3e10eefe	0.14153668
189	0xbd8f6bd2	-0.07002987
190	0xbda579e5	-0.0807989
191	0x3d979e09	0.0740319
192	0x3cee150c	0.02906277
193	0x3e0f6375	0.14002784
194	0x3e04f057	0.12982307
195	0x3deef325	0.1166747
196	0x3ca98fa4	0.020698376
197	0xbe259248	-0.16169083
198	0x3d046741	0.032325033
199	0x3e213749	0.15743746
200	0x3e0a6c51	0.13517882
201	0x3d99bb90	0.07506478
202	0xbe18877c	-0.14895433
203	0x3e1242e8	0.14283335
204	0xbe25cd85	-0.1619168
205	0x3c43bd67	0.0119470125
206	0xbc19fc8f	-0.009398594
207	0x3dc386a5	0.09547166
208	0x3e1a40cc	0.1506378
209	0x3e00869e	0.12551352
210	0xbe17917d	-0.14801593
211	0xbe291e71	-0.16515519
212	0x3da34f2c	0.07974085
213	0x3e0eaa49	0.13932146
214	0xbd91821e	-0.07104896
215	0x3e30d176	0.17267403
216	0x3c9ce8aa	0.019153912
217	0xbcaaa11f	-0.020828782
218	0x3d356e54	0.04429467
219	0xbddc37e1	-0.107528456
220	0xbdb47266	-0.08810882
221	0x3c958601	0.018252375
222	0x3dd37900	0.10325813
223	0x3d85f401	0.06540681
224	0x3e23eac7	0.16007529
225	0xbc976178	-0.018479094
226	0xbdf2c5df	-0.11854147
227	0x3dbed3e3	0.09317758
228	0xbe2ddd4f	-0.16978954
229	0xbdd22098	-0.10260123
230	0x3dbbe699	0.091748424
231	0xbd305c5c	-0.04305683
232	0xbc9be444	-0.019029744
233	0xbd947bdd	-0.072501875
234	0x3e22c43d	0.15895171
235	0xbb815f0b	-0.0039480976
236	0x3d4f8daf	0.05067223
237	0xbe3c25c9	-0.18373789
238	0xbe12babe	-0.14329049
239	0xbd474e63	-0.04865874
240	0x3d95cb2a	0.07314141
241	0x3d2f5496	0.042805277
242	0xbdc3d5d0	-0.09562266
243	0xbdcbc93c	-0.09950492
244	0xbdea8157	-0.11450451
245	0x3e15e29c	0.14637226
246	0x3d27d4b7	0.040974345
247	0xbd89c9b6	-0.067279264
248	0x3ddafe54	0.106930405
249	0xbe0f4857	-0.13992439
250	0xbce18d30	-0.027533144
251	0xbd901466	-0.07035141
252	0xbdd128a3	-0.10212829
253	0xbd594d65	-0.053052325
254	0x3d9821e0	0.07428336
255	0xbdc65aec	-0.09685311

arith.constant2 f4 [128, 12]
0	0xbe5259c2	-0.20542052
1	0x3e2ea0a9	0.17053474
2	0x3e0ec54e	0.13942453
3	0x3e541bd8	0.20713747
4	0xbda69d00	-0.08135414
5	0x3d83f1ea	0.06442626
6	0x3dc21078	0.094757974
7	0x3d077194	0.0330673
8	0xbd6c086e	-0.057625227
9	0xbe06ad7c	-0.13152117
10	0xbe5e3a4e	-0.21701929
11	0xbd848cb4	-0.064721495
12	0xbda696ad	-0.08134208
13	0xbd3d91f1	-0.04628176
14	0x3e2218c9	0.15829767
15	0x3de2473e	0.110487446
16	0x3d70bfc9	0.05877665
17	0xbd5a5a30	-0.053308666
18	0x3de0d7fd	0.109786965
19	0xbc9363c4	-0.017991908
20	0xbd05d205	-0.032670993
21	0xbda7e56b	-0.08198055
22	0x3d23d603	0.03999902
23	0xbc567a66	-0.0130907055
24	0xbe1c9f92	-0.15295246
25	0x3e094359	0.13404597
26	0x3dbc45ff	0.09193038
27	0x3d46e89f	0.04856169
28	0x3e38aeee	0.1803548
29	0xbe1697ea	-0.14706388
30	0x3d085d72	0.03329224
31	0xbd8fb731	-0.07017363
32	0xbce30d0b	-0.02771618
33	0x3e1afa8b	0.15134637
34	0xbdf4edc0	-0.1195941
35	0x3da8599d	0.082202174
36	0x3ded883c	0.1159825
37	0x3dac38b8	0.08409256
38	0xbe190f2c	-0.14947194
39	0xbe3178c2	-0.17331222
40	0xbe6eddf3	-0.23326854
41	0xbe180d7a	-0.14848891
42	0x3dac7302	0.084203735
43	0xbced8397	-0.028993411
44	0x3e1bc7fc	0.15213007
45	0x3e0165f9	0.12636556
46	0x3d6d2a4d	0.05790167
47	0xbd6e4b93	-0.058177542
48	0x3d85a280	0.06525135
49	0x3d77743b	0.06041358
50	0x3e1957d2	0.14974907
51	0x3dae068c	0.084973425
52	0x3d245da7	0.040128376
53	0xbe40f0f2	-0.18841913
54	0x3d0d6920	0.034524083
55	0x3db39793	0.08769145
56	0x3d80f422	0.06296565
57	0x3e05a320	0.13050508
58	0xbe6b2311	-0.22962596
59	0x3e49545a	0.19661084
60	0xbe12a3ca	-0.14320293
61	0x3ddc312b	0.107515655
62	0x3dfc7569	0.12327082
63	0x3dda6161	0.10663105
64	0xbe3dfa98	-0.18552625
65	0x3ca2d251	0.019875677
66	0xbe3b1ae4	-0.18271977
67	0x3dac2ba0	0.08406758
68	0xbd977098	-0.073945224
69	0x3b74c117	0.0037346536
70	0x3d866ef3	0.06564131
71	0x3e303ef3	0.17211513
72	0x3df20d29	0.11818916
73	0x3d979993	0.07402339
74	0x3be9f82b	0.0071401796
75	0xbe1161b1	-0.14197423
76	0x3e314c56	0.17314276
77	0xbe0269ce	-0.12735674
78	0xbe2de366	-0.16981277
79	0x3d71853f	0.058964964
80	0x3e2dfb3f	0.16990374
81	0xbe189b1b	-0.14902918
82	0xbe130e91	-0.14361025
83	0x3d9562fa	0.07294269
84	0xbe04823b	-0.12940304
85	0x3c668ca5	0.014071618
86	0x3d263990	0.04058224
87	0xbde0d4a8	-0.10978061
88	0x3e071e7a	0.1319522
89	0x3d512127	0.051057007
90	0xbe63cbef	-0.22245763
91	0x3dd50e3e	0.10403107
92	0x3e2acef1	0.16680504
93	0x3b166d9c	0.0022953516
94	0xbe0e996a	-0.1392571
95	0xbcb00bcf	-0.021490006
96	0xbdfce0a9	-0.12347538
97	0xbe0b60b1	-0.13611104
98	0x3d63d199	0.05561981
99	0x3d3064f4	0.043065026
100	0xbd85cd2b	-0.06533273
101	0x3cfbabad	0.03072151
102	0x3dc2088f	0.09474289
103	0x3d47ed50	0.048810303
104	0x3dea58b3	0.11442699
105	0xbd853d0e	-0.06505786
106	0xbe4a630d	-0.19764347
107	0x3d910735	0.07081453
108	0xbcc2719c	-0.023735814
109	0xbd9c5857	-0.07634037
110	0x3e45b72c	0.19308156
111	0xbdf9fb1e	-0.122061
112	0x3dcd46bf	0.10023259
113	0x3e47b895	0.19504006
114	0xbe52c9fa	-0.2058486
115	0x3e60cdd4	0.21953517
116	0x3d64b6e9	0.0558385
117	0xbe2988bb	-0.16556065
118	0x3e09ed8c	0.13469523
119	0xbe5ab6a0	-0.21358728
120	0x3e1f624d	0.15564843
121	0xbe072642	-0.13198188
122	0xbd9a30b2	-0.07528819
123	0xbe0a212f	-0.13489221
124	0x3df49f80	0.11944485
125	0xbcf1062a	-0.029421885
126	0xbe081e39	-0.13292779
127	0x3d270c70	0.040783346
128	0xbe17e965	-0.14835127
129	0x3da806a2	0.0820439
130	0xbe3cccf5	-0.1843756
131	0x3d25bd35	0.040463645
132	0x3df6c156	0.12048595
133	0x3e291ce4	0.16514927
134	0x3dcca89f	0.099930994
135	0xbd65746b	-0.056019228
136	0xbe039a16	-0.12851748
137	0xbc9838a8	-0.018581703
138	0xbe4834f0	-0.19551444
139	0x3e667067	0.22503816
140	0x3de9ebc8	0.11421925
141	0x3cb79a2b	0.02241238
142	0xbd48efdf	-0.049056884
143	0xbe830798	-0.2559173
144	0x3de9bc32	0.114128485
145	0xbde9bf39	-0.11413426
146	0xbd0aa51e	-0.033848874
147	0x3c3f1a1d	0.011663941
148	0x3e55f778	0.20895183
149	0x3d960ee6	0.073270604
150	0xbe324294	-0.1740821
151	0x3d1d3c78	0.038387746
152	0x3d9529f1	0.0728339
153	0x3e1c6692	0.15273502
154	0x3dde5c17	0.108574085
155	0xbd18b353	-0.037280392
156	0x3e3ec5a9	0.18630089
157	0xbe14f633	-0.14547043
158	0x3dd32c38	0.103111684
159	0x3df8c36f	0.12146651
160	0x3e10fe63	0.14159541
161	0x3dbb66d9	0.09150476
162	0xbdfbfd36	-0.123041555
163	0xbd97db26	-0.07414846
164	0x3dc3e8b7	0.09565871
165	0xbe195c8a	-0.14976707
166	0xbcd80c5e	-0.026373085
167	0x3e30b34c	0.17255896
168	0x3d5a6866	0.05332222
169	0x3e29efba	0.16595355
170	0xbe809fa2	-0.2512179
171	0xbdb60289	-0.08887202
172	0x3c2549d3	0.010088402
173	0xbda76253	-0.08173051
174	0xbc9013df	-0.0175876
175	0x3e58ba38	0.21164787
176	0xbd4dcb77	-0.050242867
177	0xbd9967f1	-0.074905284
178	0x3da20b8d	0.079123594
179	0xbd9e0595	-0.077159084
180	0x3e1830a9	0.14862312
181	0xbe37c90a	-0.17947784
182	0xbd698046	-0.057007097
183	0x3e1bea64	0.15226132
184	0xbd7388dd	-0.059456695
185	0xbcd886fd	-0.026431555
186	0xbdaae736	-0.08344881
187	0xbd0ccba0	-0.03437388
188	0xbd1923b8	-0.03738758
189	0x3cc7a7f9	0.024372088
190	0xbc96a773	-0.018390393
191	0x3da214de	0.07914136
192	0x3e597032	0.21234205
193	0xbc7ba09c	-0.0153581165
194	0xbd896e00	-0.06710434
195	0x3dd7b022	0.105316415
196	0x3e3399cc	0.17539138
197	0x3dab3e41	0.08361483
198	0xbd8b0d0a	-0.067895964
199	0xbce1e915	-0.027576962
200	0xbe1e2cd0	-0.15446782
201	0x3d66bdb1	0.056333248
202	0x3e6a1076	0.22857842
203	0xbe6f59f3	-0.23374157
204	0x3e0ba5d1	0.13637473
205	0xbcd3c2c6	-0.025849711
206	0x3d6267c0	0.055274725
207	0x3e4bc321	0.19898655
208	0x3c23e8cd	0.0100042345
209	0xbe011a97	-0.126078
210	0x3d3f2a65	0.04667129
211	0x3caefd08	0.02136089
212	0xbdbd6d92	-0.092494145
213	0xbde9c5b5	-0.11414663
214	0xbd3a438e	-0.04547458
215	0xbcfae2eb	-0.030625781
216	0x3e1d5321	0.15363742
217	0xbdd02651	-0.10163558
218	0x3e81c93d	0.25348845
219	0xbe1bfec6	-0.15233907
220	0xbe82b28e	-0.2552685
221	0x3e1b491b	0.15164606
222	0xbe343ba0	-0.1760087
223	0x3e40a728	0.18813765
224	0x3d8b4fb2	0.0680231
225	0x3d347c29	0.04406372
226	0x3a29df3f	0.00064801046
227	0xbaee00a9	-0.0018158156
228	0xbd026d1e	-0.031842344
229	0xbd931085	-0.07180885
230	0x3dd5856b	0.10425838
231	0xbe4be63a	-0.19912043
232	0x3e58e27b	0.21180145
233	0xbdea210e	-0.11432086
234	0xbd802304	-0.06256679
235	0xbd76065e	-0.060064666
236	0xbe407ab0	-0.18796802
237	0xbd27b88b	-0.04094748
238	0xbe020101	-0.12695695
239	0xbd078269	-0.033083353
240	0x3ddb81e9	0.10718138
241	0x3c912e60	0.017722309
242	0x3dc2960f	0.09501278
243	0xbd662c81	-0.056194786
244	0xbd2fcf33	-0.04292221
245	0xbe0eb050	-0.13934445
246	0x3c475b6f	0.012167796
247	0x3de299a6	0.11064462
248	0xbcd8fab2	-0.026486728
249	0xbdfe26d4	-0.124097496
250	0x3d0400ac	0.032227203
251	0xbe40d4a2	-0.18831113
252	0xbe0e3d6b	-0.13890617
253	0x3e03fe93	0.12890081
254	0x3e15786f	0.14596723
255	0xbe1e9c3f	-0.1548929

arith.constant29 f4 [64]
0	0xbc5a633f	-0.013329326
1	0x3c900668	0.01758118
2	0xbd16c443	-0.036808264
3	0x3c3fb4dd	0.011700836
4	0x3cc29063	0.02375049
5	0x3d1c16e1	0.038107757
6	0xbbaf8652	-0.0053565884
7	0xbd89733a	-0.06711431
8	0x3bf9b3ea	0.0076203244
9	0x3cdc7c45	0.026914725
10	0xbc5f8647	-0.013642854
11	0xbd049ab1	-0.032374088
12	0x3aedafdd	0.0018134076
13	0x3d500494	0.050785616
14	0xbc9bfe85	-0.019042263
15	0xbd175316	-0.03694447
16	0xbd44fb32	-0.04809112
17	0x3d2a83ba	0.04162953
18	0x3d20476d	0.039130617
19	0x3d8baf63	0.06820562
20	0x3cd12f81	0.025535347
21	0x3c3f34ff	0.01167035
22	0xbd7f69d8	-0.0623568
23	0x3d689759	0.05678496
24	0x3c8f0c29	0.017461853
25	0xbd066628	-0.032812268
26	0xbd961485	-0.073281325
27	0xbba6d441	-0.0050912206
28	0xbd2b83ed	-0.04187386
29	0xbb91ca0d	-0.004449135
30	0x3da3fc15	0.08007065
31	0x3d56ae46	0.052412294
32	0xbd21f4fb	-0.039540272
33	0xbc944ec7	-0.01810397
34	0xbdbe14f9	-0.09281344
35	0x3d0af2b6	0.033922873
36	0x3d0873aa	0.03331343
37	0xbbd140d6	-0.006385903
38	0xbdd03791	-0.101668485
39	0x3c269a22	0.010168584
40	0xbc8aa9be	-0.016926643
41	0x3c335a3b	0.010946806
42	0x3d23a780	0.039954662
43	0x3b240b66	0.0025031208
44	0xbd1b3182	-0.03788901
45	0xbae10222	-0.0017166773
46	0x3d1bcd06	0.038037322
47	0xbb63cab6	-0.0034758276
48	0x3c554afb	0.013018365
49	0xbb3b1257	-0.0028544867
50	0x3d9ff69d	0.078107096
51	0xbdcaf072	-0.099091426
52	0x3c11b5ed	0.008893472
53	0xbbe088cc	-0.006852245
54	0x3b92f048	0.00448421
55	0xbc026b8b	-0.007960211
56	0xbd508374	-0.050906613
57	0xbd432fa5	-0.04765286
58	0x3d79544f	0.06087142
59	0x3cf0bee1	0.029387893
60	0xbccbe7ba	-0.02489077
61	0xbcc442a4	-0.023957558
62	0x3ca3a8a2	0.019977871
63	0xbb0a9a81	-0.002114922

arith.constant30 f4 [128]
0	0xbc62440a	-0.013810167
1	0xbd9688df	-0.07350325
2	0xbd2fd9bf	-0.04293227
3	0xb93855ad	-0.00017579524
4	0xbc5dbba2	-0.013533505
5	0x3cf47c51	0.029844435
6	0x3cfa675c	0.030566864
7	0xbe3d360c	-0.18477648
8	0xbd4a00f9	-0.049317334
9	0x3ce551e2	0.027993146
10	0xbd897487	-0.06711679
11	0x3bf5d15c	0.007501764
12	0xbd1d5ea0	-0.03842032
13	0xbd5962f6	-0.053072892
14	0xbcae0cc1	-0.021246316
15	0xbd7b9c24	-0.061428204
16	0x3e035528	0.12825453
17	0xbd9261fa	-0.07147594
18	0x3dabcb5d	0.08388398
19	0x3d2e4a26	0.042551182
20	0xbc250c5b	-0.010073747
21	0xbd033504	-0.03203298
22	0xbc517406	-0.01278401
23	0x3c2149ef	0.009844287
24	0xbd975e6e	-0.07391058
25	0xbac1a68d	-0.0014774367
26	0xbd8ed25f	-0.06973719
27	0xbdf7c076	-0.12097256
28	0x3cd85785	0.02640892
29	0x3d54ea28	0.05198112
30	0xbcfb8203	-0.030701643
31	0xbd5db9f0	-0.054132402
32	0xbd493f62	-0.049132712
33	0x3daab020	0.083343744
34	0xbd8fe82d	-0.07026706
35	0x3c54565b	0.012960042
36	0xbcb16cdf	-0.02165836
37	0xba2ab913	-0.00065125636
38	0x3d57faee	0.05272954
39	0x3bbc8f71	0.0057544042
40	0xbcbebfb2	-0.023284767
41	0x3d82dd63	0.063898824
42	0xbd9164ed	-0.07099328
43	0x3b990f70	0.0046710297
44	0xbbdc905d	-0.0067310766
45	0x3ca1e0a0	0.01976043
46	0x3c4af7ba	0.012388164
47	0xba70e1c8	-0.00091889175
48	0xbde8843e	-0.11353348
49	0x3d0822e4	0.0332364
50	0x3c786688	0.015161164
51	0x3df3fbe0	0.11913276
52	0xbcba3d2c	-0.022734247
53	0x3d4a304f	0.049362477
54	0x3df589db	0.119891845
55	0x3cfc6c9d	0.03081351
56	0xbda0e889	-0.078568526
57	0xbc9653e8	-0.018350556
58	0xbdafc357	-0.0858218
59	0xbd6181a7	-0.055055287
60	0x3d99fc52	0.075188294
61	0xbcb59557	-0.022165937
62	0xbdfde2a6	-0.123967454
63	0x3d8f7263	0.070042394
64	0x3b9b3971	0.004737072
65	0x3d93b95d	0.072130896
66	0xbdaa4f2f	-0.08315884
67	0x3d470f66	0.04859867
68	0xbdd26467	-0.102730565
69	0x3ba8a002	0.0051460275
70	0xbd87b630	-0.066265464
71	0xbce560b8	-0.02800022
72	0xbdcb8036	-0.09936564
73	0xbd7a2e20	-0.061079144
74	0x3b160260	0.00228896
75	0xbdac7a31	-0.08421744
76	0x3d1599eb	0.03652374
77	0xbd63cc4d	-0.05561476
78	0x3cded390	0.02720049
79	0xbc026548	-0.007958718
80	0x3d4da24d	0.05020361
81	0x3c19464a	0.009355137
82	0xbbbcc1f2	-0.005760425
83	0x3c90d551	0.017679842
84	0x3d27c2e2	0.04095734
85	0x3cefe8b1	0.02928576
86	0x3d16194d	0.036645222
87	0x3cfdd218	0.03098397
88	0xbd4700c7	-0.048584726
89	0xbb8330dc	-0.004003627
90	0x3c9fdc30	0.019514173
91	0xbdbd0061	-0.09228588
92	0xbc0b973c	-0.008519944
93	0xbbf60499	-0.0075078723
94	0xbd2da0c1	-0.042389635
95	0xbcf9ba53	-0.030484354
96	0xbd7a9419	-0.061176393
97	0x3c10fda0	0.008849531
98	0xbd4b9063	-0.049698245
99	0xbcc1e859	-0.023670362
100	0xbe1768d5	-0.14786084
101	0xbd5e771f	-0.05431282
102	0x3d19409e	0.03741514
103	0xbdd2c0f6	-0.10290711
104	0x3b5450e6	0.0032396852
105	0xbce5be6a	-0.028044898
106	0x3c11697b	0.008875246
107	0x3cac6ef8	0.021049008
108	0xbdaea3f2	-0.08527364
109	0x3c1020f8	0.008796923
110	0xbd6d441e	-0.05792629
111	0xbd85ffdb	-0.06542941
112	0x3c2ef5a8	0.010678686
113	0xba7164d4	-0.0009208445
114	0x3d4b408f	0.049622115
115	0xbc248339	-0.010041052
116	0xbc78019b	-0.0151371015
117	0x3bda4df8	0.0066621266
118	0xbcb841ac	-0.022492252
119	0xbe323ca9	-0.17405953
120	0xbd228c18	-0.039684385
121	0xbe163f8e	-0.14672682
122	0xbdb441f1	-0.0880164
123	0x3d394b4c	0.045237824
124	0x3d2d6664	0.042333975
125	0xbcca7547	-0.024714125
126	0x3cded475	0.027200917
127	0xbc254aec	-0.010088664
